…
{'kerasregressor__epochs': [10, 50, 100, 150, 200], 'kerasregressor__num_features': [24], 'kerasregressor__regs': [[1e-05, 1e-05, 1e-05, 1e-05, 1e-05], [0.001, 0.001, 0.001, 0.001, 0.001], [0.1, 0.1, 0.1, 0.1, 0.1], [0.15, 0.15, 0.15, 0.15, 0.15]], 'kerasregressor__encoding_dims': [[5, 5, 5, 5, 5], [10, 10, 10, 10, 10], [20, 20, 20, 20, 20], [40, 40, 40, 40, 40]]}
Fitting 8 folds for each of 80 candidates, totalling 640 fits
[CV] kerasregressor__epochs=10, kerasregressor__num_features=24, kerasregressor__regs=[1e-05, 1e-05, 1e-05, 1e-05, 1e-05], kerasregressor__encoding_dims=[5, 5, 5, 5, 5] 
_________________________________________________________________
Layer (type)                 Output Shape              Param #   
=================================================================
dense_1 (Dense)              (None, 5)                 125       
_________________________________________________________________
batch_normalization_1 (Batch (None, 5)                 20        
_________________________________________________________________
dropout_1 (Dropout)          (None, 5)                 0         
_________________________________________________________________
dense_2 (Dense)              (None, 5)                 30        
_________________________________________________________________
batch_normalization_2 (Batch (None, 5)                 20        
_________________________________________________________________
dropout_2 (Dropout)          (None, 5)                 0         
_________________________________________________________________
dense_3 (Dense)              (None, 5)                 30        
_________________________________________________________________
batch_normalization_3 (Batch (None, 5)                 20        
_________________________________________________________________
dropout_3 (Dropout)          (None, 5)                 0         
_________________________________________________________________
dense_4 (Dense)              (None, 5)                 30        
_________________________________________________________________
batch_normalization_4 (Batch (None, 5)                 20        
_________________________________________________________________
dropout_4 (Dropout)          (None, 5)                 0         
_________________________________________________________________
dense_5 (Dense)              (None, 5)                 30        
_________________________________________________________________
batch_normalization_5 (Batch (None, 5)                 20        
_________________________________________________________________
dropout_5 (Dropout)          (None, 5)                 0         
_________________________________________________________________
dense_6 (Dense)              (None, 1)                 6         
=================================================================
Total params: 351
Trainable params: 301
Non-trainable params: 50
_________________________________________________________________
None
Epoch 1/10

32/65 [=============>................] - ETA: 0s - loss: 21025.9062 - mean_squared_error: 21025.9062
65/65 [==============================] - 1s 11ms/step - loss: 20464.0675 - mean_squared_error: 20464.0675
…
