Loading Data....
Regressor
24 -1
(52, 24)
(41, 24) (41,)
Fitting 5 folds for each of 64 candidates, totalling 320 fits
[CV] epochs=10, num_features=24, regs=[1e-05, 1e-05], encoding_dims=[5, 5] 
_________________________________________________________________
Layer (type)                 Output Shape              Param #   
=================================================================
dense_1 (Dense)              (None, 5)                 125       
_________________________________________________________________
batch_normalization_1 (Batch (None, 5)                 20        
_________________________________________________________________
dropout_1 (Dropout)          (None, 5)                 0         
_________________________________________________________________
dense_2 (Dense)              (None, 5)                 30        
_________________________________________________________________
batch_normalization_2 (Batch (None, 5)                 20        
_________________________________________________________________
dropout_2 (Dropout)          (None, 5)                 0         
_________________________________________________________________
dense_3 (Dense)              (None, 1)                 6         
=================================================================
Total params: 201
Trainable params: 181
Non-trainable params: 20
_________________________________________________________________
None
(32, 24)
(32, 1)
Epoch 1/10
32/32 [==============================] - 0s - loss: 25.4002 - mean_squared_error: 25.4002
Epoch 2/10
32/32 [==============================] - 0s - loss: 25.0815 - mean_squared_error: 25.0815
…
(8, 24)
8/8 [==============================] - 2s
(33, 24)
32/33 [============================>.] - ETA: 0s[CV]  epochs=100, num_features=24, regs=[0.15, 0.15], encoding_dims=[5, 5], score=-3.34808158875, total=   7.9s
[Parallel(n_jobs=1)]: Done  80 out of  80 | elapsed:  5.6min remaining:    0.0s
[CV] epochs=10, num_features=24, regs=[1e-05, 1e-05], encoding_dims=[10, 10] 
_________________________________________________________________
Layer (type)                 Output Shape              Param #   
=================================================================
dense_241 (Dense)            (None, 10)                250       
_________________________________________________________________
batch_normalization_161 (Bat (None, 10)                40        
_________________________________________________________________
dropout_161 (Dropout)        (None, 10)                0         
_________________________________________________________________
dense_242 (Dense)            (None, 10)                110       
_________________________________________________________________
batch_normalization_162 (Bat (None, 10)                40        
_________________________________________________________________
dropout_162 (Dropout)        (None, 10)                0         
_________________________________________________________________
dense_243 (Dense)            (None, 1)                 11        
=================================================================
Total params: 451
Trainable params: 411
Non-trainable params: 40
_________________________________________________________________
None
(32, 24)
(32, 1)
Epoch 1/10
32/32 [==============================] - 3s - loss: 28.9974 - mean_squared_error: 28.9974
Epoch 2/10
32/32 [==============================] - 0s - loss: 28.3320 - mean_squared_error: 28.3320
…
32/33 [============================>.] - ETA: 0s - loss: 13.4982 - mean_squared_error: 13.498233/33 [==============================] - 0s - loss: 13.4041 - mean_squared_error: 13.4041     
(8, 24)
8/8 [==============================] - 5s
(33, 24)
32/33 [============================>.] - ETA: 0s[CV]  epochs=100, num_features=24, regs=[0.15, 0.15], encoding_dims=[10, 10], score=-3.00533056259, total=  13.9s
[CV] epochs=10, num_features=24, regs=[1e-05, 1e-05], encoding_dims=[20, 20] 
_________________________________________________________________
Layer (type)                 Output Shape              Param #   
=================================================================
dense_481 (Dense)            (None, 20)                500       
_________________________________________________________________
batch_normalization_321 (Bat (None, 20)                80        
_________________________________________________________________
dropout_321 (Dropout)        (None, 20)                0         
_________________________________________________________________
dense_482 (Dense)            (None, 20)                420       
_________________________________________________________________
batch_normalization_322 (Bat (None, 20)                80        
_________________________________________________________________
dropout_322 (Dropout)        (None, 20)                0         
_________________________________________________________________
dense_483 (Dense)            (None, 1)                 21        
=================================================================
Total params: 1,101
Trainable params: 1,021
Non-trainable params: 80
_________________________________________________________________
None
(32, 24)
(32, 1)
Epoch 1/10
32/32 [==============================] - 6s - loss: 27.0975 - mean_squared_error: 27.0975
Epoch 2/10
32/32 [==============================] - 0s - loss: 25.5284 - mean_squared_error: 25.5284
…
32/33 [============================>.] - ETA: 0s - loss: 11.6344 - mean_squared_error: 11.634433/33 [==============================] - 0s - loss: 11.3743 - mean_squared_error: 11.3743     
(8, 24)
8/8 [==============================] - 8s
(33, 24)
32/33 [============================>.] - ETA: 0s[CV]  epochs=100, num_features=24, regs=[0.15, 0.15], encoding_dims=[20, 20], score=-2.56978988647, total=  21.3s
[CV] epochs=10, num_features=24, regs=[1e-05, 1e-05], encoding_dims=[40, 40] 
_________________________________________________________________
Layer (type)                 Output Shape              Param #   
=================================================================
dense_721 (Dense)            (None, 40)                1000      
_________________________________________________________________
batch_normalization_481 (Bat (None, 40)                160       
_________________________________________________________________
dropout_481 (Dropout)        (None, 40)                0         
_________________________________________________________________
dense_722 (Dense)            (None, 40)                1640      
_________________________________________________________________
batch_normalization_482 (Bat (None, 40)                160       
_________________________________________________________________
dropout_482 (Dropout)        (None, 40)                0         
_________________________________________________________________
dense_723 (Dense)            (None, 1)                 41        
=================================================================
Total params: 3,001
Trainable params: 2,841
Non-trainable params: 160
_________________________________________________________________
None
(32, 24)
(32, 1)
Epoch 1/10
32/32 [==============================] - 10s - loss: 33.0893 - mean_squared_error: 33.0893
Epoch 2/10
32/32 [==============================] - 0s - loss: 29.0040 - mean_squared_error: 29.0040
…
